…
Unknown module type for flops calculation: PReLU
Unknown module type for flops calculation: PReLU
Unknown module type for flops calculation: PReLU
Unknown module type for flops calculation: PReLU
Unknown module type for flops calculation: PReLU
Unknown module type for flops calculation: PReLU
Unknown module type for flops calculation: PReLU
--------------------------------------------------------------------------------
        Layer (type)               Output Shape        Params #         Flops #
================================================================================
            Conv2d-1         [1, 13, 360, 640]             351     161,740,800
         MaxPool2d-2          [1, 3, 360, 640]               0               0
       BatchNorm2d-3         [1, 16, 360, 640]              65               0
             PReLU-4         [1, 16, 360, 640]               1               0
      InitialBlock-5         [1, 16, 360, 640]               0               0
         MaxPool2d-6         [1, 16, 180, 320]               0               0
                             [1, 16, 180, 320]                                
            Conv2d-7          [1, 4, 180, 320]             256      29,491,200
       BatchNorm2d-8          [1, 4, 180, 320]              17               0
             PReLU-9          [1, 4, 180, 320]               1               0
            PReLU-10          [1, 4, 180, 320]               1               0
            PReLU-11          [1, 4, 180, 320]               1               0
            PReLU-12          [1, 4, 180, 320]               1               0
           Conv2d-13          [1, 4, 180, 320]             144      16,588,800
      BatchNorm2d-14          [1, 4, 180, 320]              17               0
            PReLU-15          [1, 4, 180, 320]               1               0
            PReLU-16          [1, 4, 180, 320]               1               0
            PReLU-17          [1, 4, 180, 320]               1               0
            PReLU-18          [1, 4, 180, 320]               1               0
           Conv2d-19         [1, 64, 180, 320]             256      29,491,200
      BatchNorm2d-20         [1, 64, 180, 320]             257               0
            PReLU-21         [1, 64, 180, 320]               1               0
            PReLU-22         [1, 64, 180, 320]               1               0
            PReLU-23         [1, 64, 180, 320]               1               0
            PReLU-24         [1, 64, 180, 320]               1               0
        Dropout2d-25         [1, 64, 180, 320]               0               0
            PReLU-26         [1, 64, 180, 320]               1               0
            PReLU-27         [1, 64, 180, 320]               1               0
            PReLU-28         [1, 64, 180, 320]               1               0
            PReLU-29         [1, 64, 180, 320]               1               0
DownsamplingBottleneck-30         [1, 64, 180, 320]               0               0
                             [1, 16, 180, 320]                                
           Conv2d-31         [1, 16, 180, 320]           1,024     117,964,800
      BatchNorm2d-32         [1, 16, 180, 320]              65               0
            PReLU-33         [1, 16, 180, 320]               1               0
            PReLU-34         [1, 16, 180, 320]               1               0
            PReLU-35         [1, 16, 180, 320]               1               0
            PReLU-36         [1, 16, 180, 320]               1               0
           Conv2d-37         [1, 16, 180, 320]           2,304     265,420,800
      BatchNorm2d-38         [1, 16, 180, 320]              65               0
            PReLU-39         [1, 16, 180, 320]               1               0
            PReLU-40         [1, 16, 180, 320]               1               0
            PReLU-41         [1, 16, 180, 320]               1               0
            PReLU-42         [1, 16, 180, 320]               1               0
           Conv2d-43         [1, 64, 180, 320]           1,024     117,964,800
      BatchNorm2d-44         [1, 64, 180, 320]             257               0
            PReLU-45         [1, 64, 180, 320]               1               0
            PReLU-46         [1, 64, 180, 320]               1               0
            PReLU-47         [1, 64, 180, 320]               1               0
            PReLU-48         [1, 64, 180, 320]               1               0
        Dropout2d-49         [1, 64, 180, 320]               0               0
            PReLU-50         [1, 64, 180, 320]               1               0
            PReLU-51         [1, 64, 180, 320]               1               0
            PReLU-52         [1, 64, 180, 320]               1               0
            PReLU-53         [1, 64, 180, 320]               1               0
RegularBottleneck-54         [1, 64, 180, 320]               0               0
           Conv2d-55         [1, 16, 180, 320]           1,024     117,964,800
      BatchNorm2d-56         [1, 16, 180, 320]              65               0
            PReLU-57         [1, 16, 180, 320]               1               0
            PReLU-58         [1, 16, 180, 320]               1               0
            PReLU-59         [1, 16, 180, 320]               1               0
            PReLU-60         [1, 16, 180, 320]               1               0
           Conv2d-61         [1, 16, 180, 320]           2,304     265,420,800
      BatchNorm2d-62         [1, 16, 180, 320]              65               0
            PReLU-63         [1, 16, 180, 320]               1               0
            PReLU-64         [1, 16, 180, 320]               1               0
            PReLU-65         [1, 16, 180, 320]               1               0
            PReLU-66         [1, 16, 180, 320]               1               0
           Conv2d-67         [1, 64, 180, 320]           1,024     117,964,800
      BatchNorm2d-68         [1, 64, 180, 320]             257               0
            PReLU-69         [1, 64, 180, 320]               1               0
            PReLU-70         [1, 64, 180, 320]               1               0
            PReLU-71         [1, 64, 180, 320]               1               0
            PReLU-72         [1, 64, 180, 320]               1               0
        Dropout2d-73         [1, 64, 180, 320]               0               0
            PReLU-74         [1, 64, 180, 320]               1               0
            PReLU-75         [1, 64, 180, 320]               1               0
            PReLU-76         [1, 64, 180, 320]               1               0
            PReLU-77         [1, 64, 180, 320]               1               0
RegularBottleneck-78         [1, 64, 180, 320]               0               0
           Conv2d-79         [1, 16, 180, 320]           1,024     117,964,800
      BatchNorm2d-80         [1, 16, 180, 320]              65               0
            PReLU-81         [1, 16, 180, 320]               1               0
            PReLU-82         [1, 16, 180, 320]               1               0
            PReLU-83         [1, 16, 180, 320]               1               0
            PReLU-84         [1, 16, 180, 320]               1               0
           Conv2d-85         [1, 16, 180, 320]           2,304     265,420,800
      BatchNorm2d-86         [1, 16, 180, 320]              65               0
            PReLU-87         [1, 16, 180, 320]               1               0
            PReLU-88         [1, 16, 180, 320]               1               0
            PReLU-89         [1, 16, 180, 320]               1               0
            PReLU-90         [1, 16, 180, 320]               1               0
           Conv2d-91         [1, 64, 180, 320]           1,024     117,964,800
      BatchNorm2d-92         [1, 64, 180, 320]             257               0
            PReLU-93         [1, 64, 180, 320]               1               0
            PReLU-94         [1, 64, 180, 320]               1               0
            PReLU-95         [1, 64, 180, 320]               1               0
            PReLU-96         [1, 64, 180, 320]               1               0
        Dropout2d-97         [1, 64, 180, 320]               0               0
            PReLU-98         [1, 64, 180, 320]               1               0
            PReLU-99         [1, 64, 180, 320]               1               0
           PReLU-100         [1, 64, 180, 320]               1               0
           PReLU-101         [1, 64, 180, 320]               1               0
RegularBottleneck-102         [1, 64, 180, 320]               0               0
          Conv2d-103         [1, 16, 180, 320]           1,024     117,964,800
     BatchNorm2d-104         [1, 16, 180, 320]              65               0
           PReLU-105         [1, 16, 180, 320]               1               0
           PReLU-106         [1, 16, 180, 320]               1               0
           PReLU-107         [1, 16, 180, 320]               1               0
           PReLU-108         [1, 16, 180, 320]               1               0
          Conv2d-109         [1, 16, 180, 320]           2,304     265,420,800
     BatchNorm2d-110         [1, 16, 180, 320]              65               0
           PReLU-111         [1, 16, 180, 320]               1               0
           PReLU-112         [1, 16, 180, 320]               1               0
           PReLU-113         [1, 16, 180, 320]               1               0
           PReLU-114         [1, 16, 180, 320]               1               0
          Conv2d-115         [1, 64, 180, 320]           1,024     117,964,800
     BatchNorm2d-116         [1, 64, 180, 320]             257               0
           PReLU-117         [1, 64, 180, 320]               1               0
           PReLU-118         [1, 64, 180, 320]               1               0
           PReLU-119         [1, 64, 180, 320]               1               0
           PReLU-120         [1, 64, 180, 320]               1               0
       Dropout2d-121         [1, 64, 180, 320]               0               0
           PReLU-122         [1, 64, 180, 320]               1               0
           PReLU-123         [1, 64, 180, 320]               1               0
           PReLU-124         [1, 64, 180, 320]               1               0
           PReLU-125         [1, 64, 180, 320]               1               0
RegularBottleneck-126         [1, 64, 180, 320]               0               0
       MaxPool2d-127          [1, 64, 90, 160]               0               0
                              [1, 64, 90, 160]                                
          Conv2d-128          [1, 16, 90, 160]           4,096     117,964,800
     BatchNorm2d-129          [1, 16, 90, 160]              65               0
           PReLU-130          [1, 16, 90, 160]               1               0
           PReLU-131          [1, 16, 90, 160]               1               0
           PReLU-132          [1, 16, 90, 160]               1               0
           PReLU-133          [1, 16, 90, 160]               1               0
          Conv2d-134          [1, 16, 90, 160]           2,304      66,355,200
     BatchNorm2d-135          [1, 16, 90, 160]              65               0
           PReLU-136          [1, 16, 90, 160]               1               0
           PReLU-137          [1, 16, 90, 160]               1               0
           PReLU-138          [1, 16, 90, 160]               1               0
           PReLU-139          [1, 16, 90, 160]               1               0
          Conv2d-140         [1, 128, 90, 160]           2,048      58,982,400
     BatchNorm2d-141         [1, 128, 90, 160]             513               0
           PReLU-142         [1, 128, 90, 160]               1               0
           PReLU-143         [1, 128, 90, 160]               1               0
           PReLU-144         [1, 128, 90, 160]               1               0
           PReLU-145         [1, 128, 90, 160]               1               0
       Dropout2d-146         [1, 128, 90, 160]               0               0
           PReLU-147         [1, 128, 90, 160]               1               0
           PReLU-148         [1, 128, 90, 160]               1               0
           PReLU-149         [1, 128, 90, 160]               1               0
           PReLU-150         [1, 128, 90, 160]               1               0
DownsamplingBottleneck-151         [1, 128, 90, 160]               0               0
                              [1, 64, 90, 160]                                
          Conv2d-152          [1, 32, 90, 160]           4,096     117,964,800
     BatchNorm2d-153          [1, 32, 90, 160]             129               0
           PReLU-154          [1, 32, 90, 160]               1               0
           PReLU-155          [1, 32, 90, 160]               1               0
           PReLU-156          [1, 32, 90, 160]               1               0
           PReLU-157          [1, 32, 90, 160]               1               0
          Conv2d-158          [1, 32, 90, 160]           9,216     265,420,800
     BatchNorm2d-159          [1, 32, 90, 160]             129               0
           PReLU-160          [1, 32, 90, 160]               1               0
           PReLU-161          [1, 32, 90, 160]               1               0
           PReLU-162          [1, 32, 90, 160]               1               0
           PReLU-163          [1, 32, 90, 160]               1               0
          Conv2d-164         [1, 128, 90, 160]           4,096     117,964,800
     BatchNorm2d-165         [1, 128, 90, 160]             513               0
           PReLU-166         [1, 128, 90, 160]               1               0
           PReLU-167         [1, 128, 90, 160]               1               0
           PReLU-168         [1, 128, 90, 160]               1               0
           PReLU-169         [1, 128, 90, 160]               1               0
       Dropout2d-170         [1, 128, 90, 160]               0               0
           PReLU-171         [1, 128, 90, 160]               1               0
           PReLU-172         [1, 128, 90, 160]               1               0
           PReLU-173         [1, 128, 90, 160]               1               0
           PReLU-174         [1, 128, 90, 160]               1               0
RegularBottleneck-175         [1, 128, 90, 160]               0               0
          Conv2d-176          [1, 32, 90, 160]           4,096     117,964,800
     BatchNorm2d-177          [1, 32, 90, 160]             129               0
           PReLU-178          [1, 32, 90, 160]               1               0
           PReLU-179          [1, 32, 90, 160]               1               0
           PReLU-180          [1, 32, 90, 160]               1               0
           PReLU-181          [1, 32, 90, 160]               1               0
          Conv2d-182          [1, 32, 90, 160]           9,216     265,420,800
     BatchNorm2d-183          [1, 32, 90, 160]             129               0
           PReLU-184          [1, 32, 90, 160]               1               0
           PReLU-185          [1, 32, 90, 160]               1               0
           PReLU-186          [1, 32, 90, 160]               1               0
           PReLU-187          [1, 32, 90, 160]               1               0
          Conv2d-188         [1, 128, 90, 160]           4,096     117,964,800
     BatchNorm2d-189         [1, 128, 90, 160]             513               0
           PReLU-190         [1, 128, 90, 160]               1               0
           PReLU-191         [1, 128, 90, 160]               1               0
           PReLU-192         [1, 128, 90, 160]               1               0
           PReLU-193         [1, 128, 90, 160]               1               0
       Dropout2d-194         [1, 128, 90, 160]               0               0
           PReLU-195         [1, 128, 90, 160]               1               0
           PReLU-196         [1, 128, 90, 160]               1               0
           PReLU-197         [1, 128, 90, 160]               1               0
           PReLU-198         [1, 128, 90, 160]               1               0
RegularBottleneck-199         [1, 128, 90, 160]               0               0
          Conv2d-200          [1, 32, 90, 160]           4,096     117,964,800
     BatchNorm2d-201          [1, 32, 90, 160]             129               0
           PReLU-202          [1, 32, 90, 160]               1               0
           PReLU-203          [1, 32, 90, 160]               1               0
           PReLU-204          [1, 32, 90, 160]               1               0
           PReLU-205          [1, 32, 90, 160]               1               0
          Conv2d-206          [1, 32, 90, 160]           5,120     147,456,000
     BatchNorm2d-207          [1, 32, 90, 160]             129               0
           PReLU-208          [1, 32, 90, 160]               1               0
           PReLU-209          [1, 32, 90, 160]               1               0
           PReLU-210          [1, 32, 90, 160]               1               0
           PReLU-211          [1, 32, 90, 160]               1               0
          Conv2d-212          [1, 32, 90, 160]           5,120     147,456,000
     BatchNorm2d-213          [1, 32, 90, 160]             129               0
           PReLU-214          [1, 32, 90, 160]               1               0
           PReLU-215          [1, 32, 90, 160]               1               0
           PReLU-216          [1, 32, 90, 160]               1               0
           PReLU-217          [1, 32, 90, 160]               1               0
          Conv2d-218         [1, 128, 90, 160]           4,096     117,964,800
     BatchNorm2d-219         [1, 128, 90, 160]             513               0
           PReLU-220         [1, 128, 90, 160]               1               0
           PReLU-221         [1, 128, 90, 160]               1               0
           PReLU-222         [1, 128, 90, 160]               1               0
           PReLU-223         [1, 128, 90, 160]               1               0
       Dropout2d-224         [1, 128, 90, 160]               0               0
           PReLU-225         [1, 128, 90, 160]               1               0
           PReLU-226         [1, 128, 90, 160]               1               0
           PReLU-227         [1, 128, 90, 160]               1               0
           PReLU-228         [1, 128, 90, 160]               1               0
RegularBottleneck-229         [1, 128, 90, 160]               0               0
          Conv2d-230          [1, 32, 90, 160]           4,096     117,964,800
     BatchNorm2d-231          [1, 32, 90, 160]             129               0
           PReLU-232          [1, 32, 90, 160]               1               0
           PReLU-233          [1, 32, 90, 160]               1               0
           PReLU-234          [1, 32, 90, 160]               1               0
           PReLU-235          [1, 32, 90, 160]               1               0
          Conv2d-236          [1, 32, 90, 160]           9,216     265,420,800
     BatchNorm2d-237          [1, 32, 90, 160]             129               0
           PReLU-238          [1, 32, 90, 160]               1               0
           PReLU-239          [1, 32, 90, 160]               1               0
           PReLU-240          [1, 32, 90, 160]               1               0
           PReLU-241          [1, 32, 90, 160]               1               0
          Conv2d-242         [1, 128, 90, 160]           4,096     117,964,800
     BatchNorm2d-243         [1, 128, 90, 160]             513               0
           PReLU-244         [1, 128, 90, 160]               1               0
           PReLU-245         [1, 128, 90, 160]               1               0
           PReLU-246         [1, 128, 90, 160]               1               0
           PReLU-247         [1, 128, 90, 160]               1               0
       Dropout2d-248         [1, 128, 90, 160]               0               0
           PReLU-249         [1, 128, 90, 160]               1               0
           PReLU-250         [1, 128, 90, 160]               1               0
           PReLU-251         [1, 128, 90, 160]               1               0
           PReLU-252         [1, 128, 90, 160]               1               0
RegularBottleneck-253         [1, 128, 90, 160]               0               0
          Conv2d-254          [1, 32, 90, 160]           4,096     117,964,800
     BatchNorm2d-255          [1, 32, 90, 160]             129               0
           PReLU-256          [1, 32, 90, 160]               1               0
           PReLU-257          [1, 32, 90, 160]               1               0
           PReLU-258          [1, 32, 90, 160]               1               0
           PReLU-259          [1, 32, 90, 160]               1               0
          Conv2d-260          [1, 32, 90, 160]           9,216     265,420,800
     BatchNorm2d-261          [1, 32, 90, 160]             129               0
           PReLU-262          [1, 32, 90, 160]               1               0
           PReLU-263          [1, 32, 90, 160]               1               0
           PReLU-264          [1, 32, 90, 160]               1               0
           PReLU-265          [1, 32, 90, 160]               1               0
          Conv2d-266         [1, 128, 90, 160]           4,096     117,964,800
     BatchNorm2d-267         [1, 128, 90, 160]             513               0
           PReLU-268         [1, 128, 90, 160]               1               0
           PReLU-269         [1, 128, 90, 160]               1               0
           PReLU-270         [1, 128, 90, 160]               1               0
           PReLU-271         [1, 128, 90, 160]               1               0
       Dropout2d-272         [1, 128, 90, 160]               0               0
           PReLU-273         [1, 128, 90, 160]               1               0
           PReLU-274         [1, 128, 90, 160]               1               0
           PReLU-275         [1, 128, 90, 160]               1               0
           PReLU-276         [1, 128, 90, 160]               1               0
RegularBottleneck-277         [1, 128, 90, 160]               0               0
          Conv2d-278          [1, 32, 90, 160]           4,096     117,964,800
     BatchNorm2d-279          [1, 32, 90, 160]             129               0
           PReLU-280          [1, 32, 90, 160]               1               0
           PReLU-281          [1, 32, 90, 160]               1               0
           PReLU-282          [1, 32, 90, 160]               1               0
           PReLU-283          [1, 32, 90, 160]               1               0
          Conv2d-284          [1, 32, 90, 160]           9,216     265,420,800
     BatchNorm2d-285          [1, 32, 90, 160]             129               0
           PReLU-286          [1, 32, 90, 160]               1               0
           PReLU-287          [1, 32, 90, 160]               1               0
           PReLU-288          [1, 32, 90, 160]               1               0
           PReLU-289          [1, 32, 90, 160]               1               0
          Conv2d-290         [1, 128, 90, 160]           4,096     117,964,800
     BatchNorm2d-291         [1, 128, 90, 160]             513               0
           PReLU-292         [1, 128, 90, 160]               1               0
           PReLU-293         [1, 128, 90, 160]               1               0
           PReLU-294         [1, 128, 90, 160]               1               0
           PReLU-295         [1, 128, 90, 160]               1               0
       Dropout2d-296         [1, 128, 90, 160]               0               0
           PReLU-297         [1, 128, 90, 160]               1               0
           PReLU-298         [1, 128, 90, 160]               1               0
           PReLU-299         [1, 128, 90, 160]               1               0
           PReLU-300         [1, 128, 90, 160]               1               0
RegularBottleneck-301         [1, 128, 90, 160]               0               0
          Conv2d-302          [1, 32, 90, 160]           4,096     117,964,800
     BatchNorm2d-303          [1, 32, 90, 160]             129               0
           PReLU-304          [1, 32, 90, 160]               1               0
           PReLU-305          [1, 32, 90, 160]               1               0
           PReLU-306          [1, 32, 90, 160]               1               0
           PReLU-307          [1, 32, 90, 160]               1               0
          Conv2d-308          [1, 32, 90, 160]           5,120     147,456,000
     BatchNorm2d-309          [1, 32, 90, 160]             129               0
           PReLU-310          [1, 32, 90, 160]               1               0
           PReLU-311          [1, 32, 90, 160]               1               0
           PReLU-312          [1, 32, 90, 160]               1               0
           PReLU-313          [1, 32, 90, 160]               1               0
          Conv2d-314          [1, 32, 90, 160]           5,120     147,456,000
     BatchNorm2d-315          [1, 32, 90, 160]             129               0
           PReLU-316          [1, 32, 90, 160]               1               0
           PReLU-317          [1, 32, 90, 160]               1               0
           PReLU-318          [1, 32, 90, 160]               1               0
           PReLU-319          [1, 32, 90, 160]               1               0
          Conv2d-320         [1, 128, 90, 160]           4,096     117,964,800
     BatchNorm2d-321         [1, 128, 90, 160]             513               0
           PReLU-322         [1, 128, 90, 160]               1               0
           PReLU-323         [1, 128, 90, 160]               1               0
           PReLU-324         [1, 128, 90, 160]               1               0
           PReLU-325         [1, 128, 90, 160]               1               0
       Dropout2d-326         [1, 128, 90, 160]               0               0
           PReLU-327         [1, 128, 90, 160]               1               0
           PReLU-328         [1, 128, 90, 160]               1               0
           PReLU-329         [1, 128, 90, 160]               1               0
           PReLU-330         [1, 128, 90, 160]               1               0
RegularBottleneck-331         [1, 128, 90, 160]               0               0
          Conv2d-332          [1, 32, 90, 160]           4,096     117,964,800
     BatchNorm2d-333          [1, 32, 90, 160]             129               0
           PReLU-334          [1, 32, 90, 160]               1               0
           PReLU-335          [1, 32, 90, 160]               1               0
           PReLU-336          [1, 32, 90, 160]               1               0
           PReLU-337          [1, 32, 90, 160]               1               0
          Conv2d-338          [1, 32, 90, 160]           9,216     265,420,800
     BatchNorm2d-339          [1, 32, 90, 160]             129               0
           PReLU-340          [1, 32, 90, 160]               1               0
           PReLU-341          [1, 32, 90, 160]               1               0
           PReLU-342          [1, 32, 90, 160]               1               0
           PReLU-343          [1, 32, 90, 160]               1               0
          Conv2d-344         [1, 128, 90, 160]           4,096     117,964,800
     BatchNorm2d-345         [1, 128, 90, 160]             513               0
           PReLU-346         [1, 128, 90, 160]               1               0
           PReLU-347         [1, 128, 90, 160]               1               0
           PReLU-348         [1, 128, 90, 160]               1               0
           PReLU-349         [1, 128, 90, 160]               1               0
       Dropout2d-350         [1, 128, 90, 160]               0               0
           PReLU-351         [1, 128, 90, 160]               1               0
           PReLU-352         [1, 128, 90, 160]               1               0
           PReLU-353         [1, 128, 90, 160]               1               0
           PReLU-354         [1, 128, 90, 160]               1               0
RegularBottleneck-355         [1, 128, 90, 160]               0               0
          Conv2d-356          [1, 32, 90, 160]           4,096     117,964,800
     BatchNorm2d-357          [1, 32, 90, 160]             129               0
           PReLU-358          [1, 32, 90, 160]               1               0
           PReLU-359          [1, 32, 90, 160]               1               0
           PReLU-360          [1, 32, 90, 160]               1               0
           PReLU-361          [1, 32, 90, 160]               1               0
          Conv2d-362          [1, 32, 90, 160]           9,216     265,420,800
     BatchNorm2d-363          [1, 32, 90, 160]             129               0
           PReLU-364          [1, 32, 90, 160]               1               0
           PReLU-365          [1, 32, 90, 160]               1               0
           PReLU-366          [1, 32, 90, 160]               1               0
           PReLU-367          [1, 32, 90, 160]               1               0
          Conv2d-368         [1, 128, 90, 160]           4,096     117,964,800
     BatchNorm2d-369         [1, 128, 90, 160]             513               0
           PReLU-370         [1, 128, 90, 160]               1               0
           PReLU-371         [1, 128, 90, 160]               1               0
           PReLU-372         [1, 128, 90, 160]               1               0
           PReLU-373         [1, 128, 90, 160]               1               0
       Dropout2d-374         [1, 128, 90, 160]               0               0
           PReLU-375         [1, 128, 90, 160]               1               0
           PReLU-376         [1, 128, 90, 160]               1               0
           PReLU-377         [1, 128, 90, 160]               1               0
           PReLU-378         [1, 128, 90, 160]               1               0
RegularBottleneck-379         [1, 128, 90, 160]               0               0
          Conv2d-380          [1, 32, 90, 160]           4,096     117,964,800
     BatchNorm2d-381          [1, 32, 90, 160]             129               0
           PReLU-382          [1, 32, 90, 160]               1               0
           PReLU-383          [1, 32, 90, 160]               1               0
           PReLU-384          [1, 32, 90, 160]               1               0
           PReLU-385          [1, 32, 90, 160]               1               0
          Conv2d-386          [1, 32, 90, 160]           9,216     265,420,800
     BatchNorm2d-387          [1, 32, 90, 160]             129               0
           PReLU-388          [1, 32, 90, 160]               1               0
           PReLU-389          [1, 32, 90, 160]               1               0
           PReLU-390          [1, 32, 90, 160]               1               0
           PReLU-391          [1, 32, 90, 160]               1               0
          Conv2d-392         [1, 128, 90, 160]           4,096     117,964,800
     BatchNorm2d-393         [1, 128, 90, 160]             513               0
           PReLU-394         [1, 128, 90, 160]               1               0
           PReLU-395         [1, 128, 90, 160]               1               0
           PReLU-396         [1, 128, 90, 160]               1               0
           PReLU-397         [1, 128, 90, 160]               1               0
       Dropout2d-398         [1, 128, 90, 160]               0               0
           PReLU-399         [1, 128, 90, 160]               1               0
           PReLU-400         [1, 128, 90, 160]               1               0
           PReLU-401         [1, 128, 90, 160]               1               0
           PReLU-402         [1, 128, 90, 160]               1               0
RegularBottleneck-403         [1, 128, 90, 160]               0               0
          Conv2d-404          [1, 32, 90, 160]           4,096     117,964,800
     BatchNorm2d-405          [1, 32, 90, 160]             129               0
           PReLU-406          [1, 32, 90, 160]               1               0
           PReLU-407          [1, 32, 90, 160]               1               0
           PReLU-408          [1, 32, 90, 160]               1               0
           PReLU-409          [1, 32, 90, 160]               1               0
          Conv2d-410          [1, 32, 90, 160]           5,120     147,456,000
     BatchNorm2d-411          [1, 32, 90, 160]             129               0
           PReLU-412          [1, 32, 90, 160]               1               0
           PReLU-413          [1, 32, 90, 160]               1               0
           PReLU-414          [1, 32, 90, 160]               1               0
           PReLU-415          [1, 32, 90, 160]               1               0
          Conv2d-416          [1, 32, 90, 160]           5,120     147,456,000
     BatchNorm2d-417          [1, 32, 90, 160]             129               0
           PReLU-418          [1, 32, 90, 160]               1               0
           PReLU-419          [1, 32, 90, 160]               1               0
           PReLU-420          [1, 32, 90, 160]               1               0
           PReLU-421          [1, 32, 90, 160]               1               0
          Conv2d-422         [1, 128, 90, 160]           4,096     117,964,800
     BatchNorm2d-423         [1, 128, 90, 160]             513               0
           PReLU-424         [1, 128, 90, 160]               1               0
           PReLU-425         [1, 128, 90, 160]               1               0
           PReLU-426         [1, 128, 90, 160]               1               0
           PReLU-427         [1, 128, 90, 160]               1               0
       Dropout2d-428         [1, 128, 90, 160]               0               0
           PReLU-429         [1, 128, 90, 160]               1               0
           PReLU-430         [1, 128, 90, 160]               1               0
           PReLU-431         [1, 128, 90, 160]               1               0
           PReLU-432         [1, 128, 90, 160]               1               0
RegularBottleneck-433         [1, 128, 90, 160]               0               0
          Conv2d-434          [1, 32, 90, 160]           4,096     117,964,800
     BatchNorm2d-435          [1, 32, 90, 160]             129               0
           PReLU-436          [1, 32, 90, 160]               1               0
           PReLU-437          [1, 32, 90, 160]               1               0
           PReLU-438          [1, 32, 90, 160]               1               0
           PReLU-439          [1, 32, 90, 160]               1               0
          Conv2d-440          [1, 32, 90, 160]           9,216     265,420,800
     BatchNorm2d-441          [1, 32, 90, 160]             129               0
           PReLU-442          [1, 32, 90, 160]               1               0
           PReLU-443          [1, 32, 90, 160]               1               0
           PReLU-444          [1, 32, 90, 160]               1               0
           PReLU-445          [1, 32, 90, 160]               1               0
          Conv2d-446         [1, 128, 90, 160]           4,096     117,964,800
     BatchNorm2d-447         [1, 128, 90, 160]             513               0
           PReLU-448         [1, 128, 90, 160]               1               0
           PReLU-449         [1, 128, 90, 160]               1               0
           PReLU-450         [1, 128, 90, 160]               1               0
           PReLU-451         [1, 128, 90, 160]               1               0
       Dropout2d-452         [1, 128, 90, 160]               0               0
           PReLU-453         [1, 128, 90, 160]               1               0
           PReLU-454         [1, 128, 90, 160]               1               0
           PReLU-455         [1, 128, 90, 160]               1               0
           PReLU-456         [1, 128, 90, 160]               1               0
RegularBottleneck-457         [1, 128, 90, 160]               0               0
          Conv2d-458          [1, 32, 90, 160]           4,096     117,964,800
     BatchNorm2d-459          [1, 32, 90, 160]             129               0
           PReLU-460          [1, 32, 90, 160]               1               0
           PReLU-461          [1, 32, 90, 160]               1               0
           PReLU-462          [1, 32, 90, 160]               1               0
           PReLU-463          [1, 32, 90, 160]               1               0
          Conv2d-464          [1, 32, 90, 160]           9,216     265,420,800
     BatchNorm2d-465          [1, 32, 90, 160]             129               0
           PReLU-466          [1, 32, 90, 160]               1               0
           PReLU-467          [1, 32, 90, 160]               1               0
           PReLU-468          [1, 32, 90, 160]               1               0
           PReLU-469          [1, 32, 90, 160]               1               0
          Conv2d-470         [1, 128, 90, 160]           4,096     117,964,800
     BatchNorm2d-471         [1, 128, 90, 160]             513               0
           PReLU-472         [1, 128, 90, 160]               1               0
           PReLU-473         [1, 128, 90, 160]               1               0
           PReLU-474         [1, 128, 90, 160]               1               0
           PReLU-475         [1, 128, 90, 160]               1               0
       Dropout2d-476         [1, 128, 90, 160]               0               0
           PReLU-477         [1, 128, 90, 160]               1               0
           PReLU-478         [1, 128, 90, 160]               1               0
           PReLU-479         [1, 128, 90, 160]               1               0
           PReLU-480         [1, 128, 90, 160]               1               0
RegularBottleneck-481         [1, 128, 90, 160]               0               0
          Conv2d-482          [1, 32, 90, 160]           4,096     117,964,800
     BatchNorm2d-483          [1, 32, 90, 160]             129               0
           PReLU-484          [1, 32, 90, 160]               1               0
           PReLU-485          [1, 32, 90, 160]               1               0
           PReLU-486          [1, 32, 90, 160]               1               0
           PReLU-487          [1, 32, 90, 160]               1               0
          Conv2d-488          [1, 32, 90, 160]           9,216     265,420,800
     BatchNorm2d-489          [1, 32, 90, 160]             129               0
           PReLU-490          [1, 32, 90, 160]               1               0
           PReLU-491          [1, 32, 90, 160]               1               0
           PReLU-492          [1, 32, 90, 160]               1               0
           PReLU-493          [1, 32, 90, 160]               1               0
          Conv2d-494         [1, 128, 90, 160]           4,096     117,964,800
     BatchNorm2d-495         [1, 128, 90, 160]             513               0
           PReLU-496         [1, 128, 90, 160]               1               0
           PReLU-497         [1, 128, 90, 160]               1               0
           PReLU-498         [1, 128, 90, 160]               1               0
           PReLU-499         [1, 128, 90, 160]               1               0
       Dropout2d-500         [1, 128, 90, 160]               0               0
           PReLU-501         [1, 128, 90, 160]               1               0
           PReLU-502         [1, 128, 90, 160]               1               0
           PReLU-503         [1, 128, 90, 160]               1               0
           PReLU-504         [1, 128, 90, 160]               1               0
RegularBottleneck-505         [1, 128, 90, 160]               0               0
          Conv2d-506          [1, 32, 90, 160]           4,096     117,964,800
     BatchNorm2d-507          [1, 32, 90, 160]             129               0
           PReLU-508          [1, 32, 90, 160]               1               0
           PReLU-509          [1, 32, 90, 160]               1               0
           PReLU-510          [1, 32, 90, 160]               1               0
           PReLU-511          [1, 32, 90, 160]               1               0
          Conv2d-512          [1, 32, 90, 160]           5,120     147,456,000
     BatchNorm2d-513          [1, 32, 90, 160]             129               0
           PReLU-514          [1, 32, 90, 160]               1               0
           PReLU-515          [1, 32, 90, 160]               1               0
           PReLU-516          [1, 32, 90, 160]               1               0
           PReLU-517          [1, 32, 90, 160]               1               0
          Conv2d-518          [1, 32, 90, 160]           5,120     147,456,000
     BatchNorm2d-519          [1, 32, 90, 160]             129               0
           PReLU-520          [1, 32, 90, 160]               1               0
           PReLU-521          [1, 32, 90, 160]               1               0
           PReLU-522          [1, 32, 90, 160]               1               0
           PReLU-523          [1, 32, 90, 160]               1               0
          Conv2d-524         [1, 128, 90, 160]           4,096     117,964,800
     BatchNorm2d-525         [1, 128, 90, 160]             513               0
           PReLU-526         [1, 128, 90, 160]               1               0
           PReLU-527         [1, 128, 90, 160]               1               0
           PReLU-528         [1, 128, 90, 160]               1               0
           PReLU-529         [1, 128, 90, 160]               1               0
       Dropout2d-530         [1, 128, 90, 160]               0               0
           PReLU-531         [1, 128, 90, 160]               1               0
           PReLU-532         [1, 128, 90, 160]               1               0
           PReLU-533         [1, 128, 90, 160]               1               0
           PReLU-534         [1, 128, 90, 160]               1               0
RegularBottleneck-535         [1, 128, 90, 160]               0               0
          Conv2d-536          [1, 32, 90, 160]           4,096     117,964,800
     BatchNorm2d-537          [1, 32, 90, 160]             129               0
           PReLU-538          [1, 32, 90, 160]               1               0
           PReLU-539          [1, 32, 90, 160]               1               0
           PReLU-540          [1, 32, 90, 160]               1               0
           PReLU-541          [1, 32, 90, 160]               1               0
          Conv2d-542          [1, 32, 90, 160]           9,216     265,420,800
     BatchNorm2d-543          [1, 32, 90, 160]             129               0
           PReLU-544          [1, 32, 90, 160]               1               0
           PReLU-545          [1, 32, 90, 160]               1               0
           PReLU-546          [1, 32, 90, 160]               1               0
           PReLU-547          [1, 32, 90, 160]               1               0
          Conv2d-548         [1, 128, 90, 160]           4,096     117,964,800
     BatchNorm2d-549         [1, 128, 90, 160]             513               0
           PReLU-550         [1, 128, 90, 160]               1               0
           PReLU-551         [1, 128, 90, 160]               1               0
           PReLU-552         [1, 128, 90, 160]               1               0
           PReLU-553         [1, 128, 90, 160]               1               0
       Dropout2d-554         [1, 128, 90, 160]               0               0
           PReLU-555         [1, 128, 90, 160]               1               0
           PReLU-556         [1, 128, 90, 160]               1               0
           PReLU-557         [1, 128, 90, 160]               1               0
           PReLU-558         [1, 128, 90, 160]               1               0
RegularBottleneck-559         [1, 128, 90, 160]               0               0
          Conv2d-560          [1, 19, 90, 160]           2,432      70,041,600
 ConvTranspose2d-561         [1, 19, 180, 320]           1,444      41,587,200
--------------------------------------------------------------------------------
Total flops: 10,737,216,000
Total params: 329,131
Trainable params: 321,396
Non-trainable params: 7,735
--------------------------------------------------------------------------------
Input size (MB): 10.55
Forward/backward pass size (MB): 5860.44
Params size (MB): 1.26
Estimated Total Size (MB): 5872.24
…
